…
 '01_015.avi', '01_046.avi', '01_023.avi', '01_062.avi', '01_049.avi', '01_034.avi', '01_001.avi', '01_007.avi', '01_033.avi', '01_010.avi', '01_005.avi', '01_011.avi']
72
(17446, 7, 128, 128, 3)
[INFO] data loaded
Count:  0
Model: "model"
_________________________________________________________________
 Layer (type)                Output Shape              Param #   
=================================================================
 input_1 (InputLayer)        [(None, 7, 128, 128, 3)]  0         
                                                                 
 time_distributed (TimeDistr  (None, 7, 64, 64, 128)   587       
 ibuted)                                                         
                                                                 
 batch_normalization (BatchN  (None, 7, 64, 64, 128)   512       
 ormalization)                                                   
                                                                 
 tf.math.tanh (TFOpLambda)   (None, 7, 64, 64, 128)    0         
                                                                 
 time_distributed_1 (TimeDis  (None, 7, 32, 32, 64)    9408      
 tributed)                                                       
                                                                 
 batch_normalization_1 (Batc  (None, 7, 32, 32, 64)    256       
 hNormalization)                                                 
                                                                 
 tf.math.tanh_1 (TFOpLambda)  (None, 7, 32, 32, 64)    0         
                                                                 
 conv_lstm2d (ConvLSTM2D)    (None, 7, 16, 16, 64)     295168    
                                                                 
 batch_normalization_2 (Batc  (None, 7, 16, 16, 64)    256       
 hNormalization)                                                 
                                                                 
 tf.math.tanh_2 (TFOpLambda)  (None, 7, 16, 16, 64)    0         
                                                                 
 conv_lstm2d_1 (ConvLSTM2D)  (None, 7, 16, 16, 32)     110720    
                                                                 
 batch_normalization_3 (Batc  (None, 7, 16, 16, 32)    128       
 hNormalization)                                                 
                                                                 
 tf.math.tanh_3 (TFOpLambda)  (None, 7, 16, 16, 32)    0         
                                                                 
 conv_lstm2d_2 (ConvLSTM2D)  (None, 7, 16, 16, 64)     221440    
                                                                 
 batch_normalization_4 (Batc  (None, 7, 16, 16, 64)    256       
 hNormalization)                                                 
                                                                 
 tf.math.tanh_4 (TFOpLambda)  (None, 7, 16, 16, 64)    0         
                                                                 
 conv_lstm2d_3 (ConvLSTM2D)  (None, 7, 16, 16, 128)    885248    
                                                                 
 batch_normalization_5 (Batc  (None, 7, 16, 16, 128)   512       
 hNormalization)                                                 
                                                                 
 tf.math.tanh_5 (TFOpLambda)  (None, 7, 16, 16, 128)   0         
                                                                 
=================================================================
Total params: 1,524,491
Trainable params: 1,523,531
Non-trainable params: 960
_________________________________________________________________
Model: "model_1"
__________________________________________________________________________________________________
…
==================================================================================================
Total params: 2,217,818
Trainable params: 2,216,212
Non-trainable params: 1,606
__________________________________________________________________________________________________
Model: "model_3"
_________________________________________________________________
 Layer (type)                Output Shape              Param #   
=================================================================
 input_3 (InputLayer)        [(None, 7, 128, 128, 3)]  0         
                                                                 
 time_distributed_8 (TimeDis  (None, 7, 64, 64, 128)   587       
 tributed)                                                       
                                                                 
 batch_normalization_16 (Bat  (None, 7, 64, 64, 128)   512       
 chNormalization)                                                
                                                                 
 leaky_re_lu (LeakyReLU)     (None, 7, 64, 64, 128)    0         
                                                                 
 time_distributed_9 (TimeDis  (None, 7, 32, 32, 64)    11456     
 tributed)                                                       
                                                                 
 batch_normalization_17 (Bat  (None, 7, 32, 32, 64)    256       
 chNormalization)                                                
                                                                 
 leaky_re_lu_1 (LeakyReLU)   (None, 7, 32, 32, 64)     0         
                                                                 
 conv_lstm2d_8 (ConvLSTM2D)  (None, 7, 16, 16, 64)     295168    
                                                                 
 batch_normalization_18 (Bat  (None, 7, 16, 16, 64)    256       
 chNormalization)                                                
                                                                 
 leaky_re_lu_2 (LeakyReLU)   (None, 7, 16, 16, 64)     0         
                                                                 
 conv_lstm2d_9 (ConvLSTM2D)  (None, 7, 16, 16, 32)     110720    
                                                                 
 batch_normalization_19 (Bat  (None, 7, 16, 16, 32)    128       
 chNormalization)                                                
                                                                 
 leaky_re_lu_3 (LeakyReLU)   (None, 7, 16, 16, 32)     0         
                                                                 
 conv_lstm2d_10 (ConvLSTM2D)  (None, 7, 16, 16, 64)    221440    
                                                                 
 batch_normalization_20 (Bat  (None, 7, 16, 16, 64)    256       
 chNormalization)                                                
                                                                 
 leaky_re_lu_4 (LeakyReLU)   (None, 7, 16, 16, 64)     0         
                                                                 
 conv_lstm2d_11 (ConvLSTM2D)  (None, 7, 16, 16, 128)   885248    
                                                                 
 batch_normalization_21 (Bat  (None, 7, 16, 16, 128)   512       
 chNormalization)                                                
                                                                 
 leaky_re_lu_5 (LeakyReLU)   (None, 7, 16, 16, 128)    0         
                                                                 
=================================================================
Total params: 1,526,539
Trainable params: 1,525,579
Non-trainable params: 960
_________________________________________________________________
<class 'list'>
1/1 [==============================] - ETA: 0s1/1 [==============================] - 2s 2s/step
…
